…
localhost:8080/"},"id":"3z8VgPmH1blk","executionInfo":{"status":"ok","timestamp":1664699742089,"user_tz":-180,"elapsed":328,"user":{"displayName":"Mahmoud Atia Ead","userId":"04613075323426092176"}},"outputId":"eba3e1ba-b7ac-4996-8980-389b21ffe181"},"execution_count":null,"outputs":[{"output_type":"stream","name":"stdout","text":["Model: \"sequential_8\"\n","_________________________________________________________________\n"," Layer (type)                Output Shape              Param #   \n","=================================================================\n"," flatten_6 (Flatten)         (None, 150528)            0         \n","                                                                 \n"," dense_20 (Dense)            (None, 4)                 602116    \n","                                                                 \n"," dense_21 (Dense)            (None, 4)                 20        \n","                                                                 \n"," dense_22 (Dense)            (None, 1)                 5         \n","                                                                 \n","=================================================================\n","Total params: 602,141\n","Trainable params: 602,141\n","Non-trainable params: 0\n","_________________________________________________________________\n","Model: \"sequential_1\"\n","_________________________________________________________________\n"," Layer (type)                Output Shape              Param #   \n","=================================================================\n"," conv2d_4 (Conv2D)           (None, 222, 222, 10)      280       \n","                                                                 \n"," conv2d_5 (Conv2D)           (None, 220, 220, 10)      910       \n","                                                                 \n"," max_pooling2d_2 (MaxPooling  (None, 110, 110, 10)     0         \n"," 2D)                                                             \n","                                                                 \n"," conv2d_6 (Conv2D)           (None, 108, 108, 10)      910       \n","                                                                 \n"," conv2d_7 (Conv2D)           (None, 106, 106, 10)      910       \n","                                                                 \n"," max_pooling2d_3 (MaxPooling  (None, 53, 53, 10)       0         \n"," 2D)                                                             \n","                                                                 \n"," flatten_1 (Flatten)         (None, 28090)             0         \n","                                                                 \n"," dense_1 (Dense)             (None, 1)                 28091     \n","                                                                 \n","=================================================================\n","Total params: 31,101\n","Trainable params: 31,101\n","Non-trainable params: 0\n","_________________________________________________________________\n"]},{"output_type":"execute_result","data":{"text/plain":["(None, None)"]},"metadata":{},"execution_c
…
s://localhost:8080/"},"id":"1UC4LEmH0YKW","executionInfo":{"status":"ok","timestamp":1665203163158,"user_tz":-180,"elapsed":535,"user":{"displayName":"Mahmoud Atia Ead","userId":"04613075323426092176"}},"outputId":"76a61fab-4796-4d02-a03c-56eec20e6dff"},"execution_count":73,"outputs":[{"output_type":"stream","name":"stdout","text":["Model: \"sequential\"\n","_________________________________________________________________\n"," Layer (type)                Output Shape              Param #   \n","=================================================================\n"," conv2d_3 (Conv2D)           (None, 222, 222, 10)      280       \n","                                                                 \n"," max_pooling2d_3 (MaxPooling  (None, 111, 111, 10)     0         \n"," 2D)                                                             \n","                                                                 \n"," conv2d_4 (Conv2D)           (None, 109, 109, 10)      910       \n","                                                                 \n"," max_pooling2d_4 (MaxPooling  (None, 54, 54, 10)       0         \n"," 2D)                                                             \n","                                                                 \n"," conv2d_5 (Conv2D)           (None, 52, 52, 10)        910       \n","                                                                 \n"," max_pooling2d_5 (MaxPooling  (None, 17, 17, 10)       0         \n"," 2D)                                                             \n","                                                                 \n"," flatten_1 (Flatten)         (None, 2890)              0         \n","                                                                 \n"," dense (Dense)               (None, 1)                 2891      \n","                                                                 \n","=================================================================\n","Total params: 4,991\n","Trainable params: 4,991\n","Non-trainable params: 0\n","_________________________________________________________________\n"]}]},{"cell_type":"code","source":["model_5.evaluate(test)"],"metadata":{"colab":{"base_uri":"https:/
…
